Net(DUDnCNN(
  (mse): MSELoss()
  (conv): ModuleList(
    (0): Conv2d(3, 64, kernel_size=(3, 3), stride=(1, 1), padding=(1, 1))
    (1): Conv2d(64, 64, kernel_size=(3, 3), stride=(1, 1), padding=(1, 1))
    (2): Conv2d(64, 64, kernel_size=(3, 3), stride=(1, 1), padding=(2, 2), dilation=(2, 2))
    (3): Conv2d(64, 64, kernel_size=(3, 3), stride=(1, 1), padding=(4, 4), dilation=(4, 4))
    (4): Conv2d(64, 64, kernel_size=(3, 3), stride=(1, 1), padding=(4, 4), dilation=(4, 4))
    (5): Conv2d(64, 64, kernel_size=(3, 3), stride=(1, 1), padding=(2, 2), dilation=(2, 2))
    (6): Conv2d(64, 64, kernel_size=(3, 3), stride=(1, 1), padding=(1, 1))
    (7): Conv2d(64, 3, kernel_size=(3, 3), stride=(1, 1), padding=(1, 1))
  )
  (bn): ModuleList(
    (0): BatchNorm2d(64, eps=64, momentum=0.1, affine=True, track_running_stats=True)
    (1): BatchNorm2d(64, eps=64, momentum=0.1, affine=True, track_running_stats=True)
    (2): BatchNorm2d(64, eps=64, momentum=0.1, affine=True, track_running_stats=True)
    (3): BatchNorm2d(64, eps=64, momentum=0.1, affine=True, track_running_stats=True)
    (4): BatchNorm2d(64, eps=64, momentum=0.1, affine=True, track_running_stats=True)
    (5): BatchNorm2d(64, eps=64, momentum=0.1, affine=True, track_running_stats=True)
  )
))
TrainSet(NoisyBSDSDataset(mode=train, image_size=(180, 180), sigma=30))
ValSet(NoisyBSDSDataset(mode=test, image_size=(320, 320), sigma=30))
Optimizer(Adam (
Parameter Group 0
    amsgrad: False
    betas: (0.9, 0.999)
    capturable: False
    differentiable: False
    eps: 1e-08
    foreach: None
    fused: False
…
